…
********************************* K-fold Training *****************************************************************************************

******************************************************************************************* Fold [1/3] *******************************************************************************************
************************************************************************************* Model: dilated_seq2seq *************************************************************************************
Seq2Seq(
  (encoder): Encoder(
    (embeddings): ModuleList(
      (0): Embedding(3050, 50)
      (1): Embedding(8, 4)
      (2): Embedding(4, 2)
      (3): Embedding(11, 5)
      (4): Embedding(4, 2)
    )
    (cal_embedding): Embedding(31, 16)
    (drnns): ModuleList(
      (0): DRNN(
        (rnn_dropouts): ModuleList(
          (0): Dropout(p=0.2, inplace=False)
        )
        (cells): Sequential(
          (0): LSTM(107, 20)
          (1): LSTM(20, 20)
        )
      )
      (1): DRNN(
        (rnn_dropouts): ModuleList(
          (0): Dropout(p=0.2, inplace=False)
        )
        (cells): Sequential(
          (0): LSTM(107, 20)
          (1): LSTM(20, 20)
        )
      )
    )
  )
  (decoder): Decoder(
    (embeddings): ModuleList(
      (0): Embedding(3050, 50)
      (1): Embedding(8, 4)
      (2): Embedding(4, 2)
      (3): Embedding(11, 5)
      (4): Embedding(4, 2)
    )
    (cal_embedding): Embedding(31, 16)
    (rnn): LSTM(107, 20, num_layers=2, bidirectional=True)
    (pred): Linear(in_features=40, out_features=9, bias=True)
  )
  (fc_h0): Linear(in_features=6, out_features=4, bias=True)
  (fc_h1): Linear(in_features=6, out_features=4, bias=True)
)

****************************************************************************************** Loading Data ******************************************************************************************
******************************************************************************************** Training ********************************************************************************************
…
